models/multi_hand_gesture_classifier.tflite (tflite, 147056 bytes, 8 tensors)

sequential/dense/BiasAdd/ReadVariableOp/resource f4 [32]
00000000: 1a9a 16be 992d 5b3f 895c d33f 6665 e13e
00000010: bb03 d6bd 741a 2abe 8903 a73f baba 4b3f
00000020: 3518 a0bd 37e8 913e 17a8 bfbd 7bed 263f
00000030: 3c9d 893f 7930 313f e11d 0d3e d5ec 5fbe
00000040: 3f09 e03d cba0 2a3e cbaa f93f 43bc 983e
00000050: 0a9f 4f3e 1ce9 1dbf 498b f33d 8c5d 8cbb
00000060: 2040 d93e b7e8 b23e 4de3 e0bc 87ed 603f
00000070: 0e01 87be 1971 c5bd 6e23 993e 1af1 653f
-0.14707223 0.8561645 1.6512614 0.44022673 -0.1044993 -0.16611654 1.3047954 0.795818
-0.07817117 0.28497478 -0.093582325 0.65206116 1.0751109 0.6921459 0.13780929 -0.21867688
0.109392636 0.166629 1.9505247 0.29831132 0.20275512 -0.6168382 0.11891801 -0.0042836126
0.42431736 0.34943172 -0.027452135 0.8786244 -0.26367992 -0.09640712 0.29909843 0.89821017

sequential/dense_1/BiasAdd/ReadVariableOp/resource f4 [31]
00000000: 5f72 5d3e 2215 2cbf 9ab2 3f3f 9d1b 78be
00000010: 6e1d 6cbe f4a4 33bf eb59 053f d02e e2bf
00000020: 2ab3 01bf 5289 36bf 92a5 37bf 33eb 493f
00000030: b530 96bf 016b edbe 4113 01bf a5c3 dd3e
00000040: 9664 353e c9f0 2a3f eb64 983f 01dd f0be
00000050: fd3f d33e 649c 403e ecd3 0640 d899 83bf
00000060: 11a8 eabe da55 d5bf d36e 1fbe a377 613f
00000070: a236 bc3e cca3 bdbe d28a bcbf
0.2162566 -0.67219746 0.748819 -0.24229284 -0.23058102 -0.70173573 0.5209033 -1.7670536
-0.5066401 -0.71303284 -0.71737015 0.7887451 -1.1733614 -0.463707 -0.50420004 0.43313327
0.17714152 0.6677366 1.1905798 -0.47043613 0.41259757 0.18809658 2.1066847 -1.0281324
-0.4583135 -1.6666825 -0.1556962 0.88073176 0.36760432 -0.3703903 -1.4729865

sequential/lstm/lstm_cell_2/BiasAdd/ReadVariableOp/resource f4 [256]
00000000: 6afa 963c 6b20 17be 3f10 9b3d 5769 3f3e
00000010: 8236 db3d 8157 1abd a606 bd37 bf96 ec3d
00000020: c024 073e 5cbb 943d cbc9 94bd 5220 68bd
00000030: 3b65 733c f992 e73d 90fa 50bc e19f 72bc
00000040: da77 da3b 3b08 17be 12c3 11bc 03ee 94bd
00000050: be95 633d a88e b03d 0317 16bd db41 a5bd
00000060: af2d 07bd 8ea7 b53b bf2a f93b 789d 53bd
00000070: fa03 793d 944c dbbd d093 cb3b a6b0 1abc
00000080: 7e25 aa3d b4dd 463e 6880 03bd 42bb 773d
00000090: 776a b33d 93ab 363d 1add 023e 8771 59bd
000000a0: fb6e cb3e 9db0 043e c8d9 973c 7f2b 4e3d
000000b0: 5481 d13d 7baa e23d 78df bc3c 44d7 553e
000000c0: 1652 a5bd 424f 5eba 239a 833d 7f3b 39bc
000000d0: a56f c23c 6a96 903d 90a1 99bc d8e3 5d3e
000000e0: 5d48 16bd ca6e 1abd 4ae7 bf3e f460 353e
000000f0: 6f10 0c3c 5617 9cbd c1fb b93d fd4e d2bc
00000100: f379 803f c850 683f e724 593f a2ca 973f
00000110: 513f 823f 017d 733f 1693 583f 337d 853f
00000120: 052c 7d3f af8a 7b3f f839 783f 77ab 923f
00000130: 97d7 8c3f f89e 703f 5587 733f 6338 6f3f
00000140: 2635 553f 06cc 613f 26e3 573f daff 813f
00000150: a13c 893f b737 813f d51a 6e3f 8613 713f
00000160: c0f0 7e3f be01 693f 937a 8c3f fac2 673f
00000170: fbd0 593f 8695 623f 2351 7f3f 6de2 6e3f
00000180: 2c0f 8d3f 0e8a 9a3f 921e 853f 7ae6 843f
00000190: b031 863f 2e55 5c3f 3053 463f af63 743f
000001a0: 9758 8d3f 7ec9 943f 1b47 4a3f 76a9 8f3f
000001b0: 2951 763f c106 933f eb1f 823f 17e8 933f
000001c0: 67b5 713f 5b2c 553f 82ff 933f f6bf 633f
000001d0: 2fce 673f 8035 813f 5cdd 873f cd57 843f
000001e0: 100d 9d3f ad37 733f e113 8c3f f18a 913f
000001f0: 78b6 803f f35c 7c3f 03ae 653f fc09 5f3f
00000200: f2e3 1bba bec8 c3bd ddeb d63b 398e 783e
00000210: fdb5 2d3e 107f c33b af26 813c 2a41 1fbd
00000220: 0ef2 5a3e f6f0 473c a76b 9abd 12a0 b8bb
00000230: e820 003e 84f3 663d c00d babd 36b0 173c
00000240: eda5 02bd fdc4 4bbc 0179 debc f2dc e8bd
00000250: 61bb bc3b 966e 533d a60a babd 2acb 20bd
00000260: 4deb 043d 0959 353c c6e1 083d 81ba 393b
00000270: b6c1 5c3d 075c 65bc 2d00 92bd 7806 b23d
00000280: 856d 763b 04b6 393e 0808 073d 1c23 003e
00000290: 0682 c43d b117 88bd ca27 443d 4457 0d3d
000002a0: 7085 a73e b15d 633e 8bea e6bd 9634 6abc
000002b0: 6f60 4c3e 18c2 853e cd99 f83e e342 553e
000002c0: bed0 eebc 93a3 d03c 9afa 523e 6ddf c73c
000002d0: 5472 193d 38f4 0e3e 4bc6 d73d 2660 933e
000002e0: 39de ab3c 95e2 18bd 0a1b 833e 3e5a ad3d
000002f0: 4734 ae3d a5ff f1bd e64c 803d e775 85bd
00000300: 0cf6 163d ec21 7d3d 9f42 96bd a38e 1d3e
00000310: 73dd 273d 0a47 27bd fb2d bb3b ae68 f73b
00000320: bdb2 aa3d 7498 06bd 08ab 5bbc b912 fe3c
00000330: 4e75 c93d 2bfe 833c 28e4 753d 8648 b43c
00000340: 7d27 c3bd 4d8e 623d 5a60 49bd ae9e 59bc
00000350: a0e8 d3bd f1c8 403e cd6f b7bd efe9 10bd
00000360: 4344 86bd 1e83 8abc af4c c83d 62e3 253d
00000370: 90f7 243d 4ace 03be 2266 f9bc 97dc 13bc
00000380: 1272 363e f3a8 6f3d dde4 59bc 9e67 1e3e
00000390: 1fbe 21be b54d 5f3d 799d 46bd 06ff 1f3e
000003a0: 3c7a 373e c5a9 663e 97e0 90bb 90fb e93d
000003b0: eb6c abbc 0a8a 3d3c 6635 643c 43de 733e
000003c0: ac48 023c 1ab9 363d db73 6c3e ab78 d33d
000003d0: 910e 88bd 66ca 293e 3a5b 9c3d 9fb4 c63d
000003e0: 6e3a 0fbe d7c3 0c3e 1aa4 f03d 561a 393d
000003f0: fe55 b6bc 446a 513d 7870 e23d 3846 963d
0.018429954 -0.1475846 0.07571458 0.18692528 0.10703756 -0.037681106 2.2533652e-05 0.1155219
0.13197613 0.072622985 -0.072650515 -0.056671448 0.014855678 0.1130733 -0.012755051 -0.014808626
0.0066671195 -0.14749233 -0.008896606 -0.0727196 0.055562727 0.086209595 -0.03664304 -0.080692016
-0.03300255 0.0055436557 0.0076039727 -0.051663846 0.060794808 -0.107079655 0.006212689 -0.00944153
0.08307932 0.1942051 -0.03210488 0.060481317 0.08760541 0.04459722 0.12779656 -0.053086784
0.3973311 0.12957998 0.018536463 0.05033445 0.102297455 0.11067673 0.023055777 0.20882899
-0.08072297 -0.0008480438 0.064258836 -0.011305689 0.023734877 0.07059939 -0.018753797 0.21668947
-0.036690105 -0.037703313 0.37481147 0.17712766 0.00854884 -0.076216385 0.09081221 -0.02567243
1.0037216 0.9074826 0.84821934 1.1858714 1.0175573 0.95112616 0.84599435 1.0428833
0.98895293 0.9825849 0.96963453 1.1458577 1.1003293 0.9399257 0.95128375 0.93445414
0.83284223 0.8820194 0.84330976 1.0156205 1.0721627 1.0095128 0.9300969 0.94170415
0.99586105 0.91018283 1.0974907 0.90531886 0.85084504 0.88509405 0.9973318 0.9331425
1.1020255 1.2073381 1.0399954 1.0382836 1.0483913 0.86067474 0.77470684 0.95464605
1.104266 1.162399 0.7901475 1.122359 0.9621759 1.1486436 1.016599 1.1555203
0.94417423 0.83270806 1.156235 0.88964784 0.90548986 1.0094452 1.0614429 1.0339295
1.2269611 0.9500683 1.0943567 1.1370527 1.0055685 0.9857933 0.89718646 0.8712461
-0.0005946747 -0.09559773 0.006558879 0.24273004 0.16963954 0.0059660748 0.015765516 -0.038880505
0.21381399 0.012203446 -0.07540064 -0.0056343162 0.12512553 0.05638458 -0.09084654 0.009258321
-0.03189652 -0.012437102 -0.027157309 -0.11370267 0.005759642 0.051619135 -0.09084062 -0.039256252
0.032450963 0.011068591 0.03341844 0.0028339925 0.053895675 -0.013998992 -0.0712894 0.0869264
0.00376019 0.1813584 0.032966644 0.12513393 0.095951125 -0.06645144 0.04788951 0.03450705
0.32718992 0.22203709 -0.11275204 -0.014294764 0.19958661 0.26124644 0.4855484 0.20826297
-0.02915227 0.025468623 0.2060341 0.02439853 0.037462547 0.1396035 0.10535868 0.28784293
0.020979987 -0.03732546 0.25606567 0.08464478 0.08506065 -0.118163384 0.06264667 -0.06516629
0.036855742 0.06179993 -0.07336926 0.15386443 0.040982675 -0.040839233 0.0057122684 0.0075503206
0.08334873 -0.032860234 -0.013407476 0.031014787 0.09836827 0.016112408 0.06003204 0.022007238
-0.09529016 0.05531149 -0.049164154 -0.013282461 -0.10347104 0.18826653 -0.08956871 -0.035379346
-0.06555989 -0.016908225 0.09780251 0.040500052 0.040275156 -0.12871662 -0.030444209 -0.009024761
0.17816952 0.058510732 -0.013299194 0.15469214 -0.15795182 0.054517467 -0.04849002 0.15624627
0.17917722 0.225257 -0.0044213044 0.11424935 -0.02092596 0.011568556 0.013928747 0.23815255
0.007951897 0.04461012 0.2309107 0.1032575 -0.06643403 0.16581115 0.076345876 0.097024195
-0.13987133 0.13746582 0.1175005 0.04519113 -0.022257801 0.051126733 0.11056608 0.07337612

sequential/dense/MatMul f4 [32, 64]
00000000: 5cb4 66bd 66ad b3bc 6da5 1cbd 8c31 383d
00000010: 3329 633d 4619 443c 7920 453c 26d5 fb3c
00000020: bbdf 003d 013d 59bd 3dae fd3c e3cd b23b
00000030: f4ca b03c ad75 93bc 8138 af3d 01f0 29bb
00000040: 607c debb c214 9a3d 9df7 66ba f97b 8239
00000050: 6714 15bd fb8b b3bc 31cd 45bd ff64 3c3d
00000060: 61b1 59ba 34e7 103c de16 f53b 9d73 a6bc
00000070: 87ce cabc 1fa9 1fbc 5e27 0c3d a52a c4bc
00000080: 7e0d b93d 6dc8 18bc 5b63 3cbc 4530 5fbc
00000090: 4da8 eb3d 4cd5 e4bb 05ab 2dbd beba e73c
000000a0: 576c 243d cf00 ebbb 2a9d 61bb fc9b d8ba
000000b0: c160 323d e318 c93d 0d32 d03d 8969 16bc
000000c0: 0840 36bc 7540 55bc 42c9 babc 1301 ccbc
000000d0: 2297 b5ba f8b5 92bc cfef 3abd 7be0 1b3c
000000e0: 19a6 6b3d 4b30 793d 2751 003c 09bd 12bd
000000f0: e95f a33c d58e d03c c0cf 0ebd 3e91 263d
00000100: 9d66 e73c 45c1 883d a383 353c bfaf 43bd
00000110: da4f 8abd 3c26 8fbc 0726 a7bc ff1f b53c
00000120: e78c f8bc dbaf 41bd e04c bebc 0a34 49bb
00000130: bd11 ef3c bc9d 103a 83de 13bd 022a f1bc
00000140: 826d 5c3a 2ed6 b9bc dae8 28bd c513 45bd
00000150: cfad 8f3d 3e69 53bd 76c5 19bd 9d61 35bd
00000160: 371f 93bc 76d9 763d 9aee 23bc 8f86 a7bb
00000170: 6d8b 6cbd e453 2e3d ecaa 49bb 128d f9bc
00000180: 0ed6 efbb 7699 e1ba 1bf5 3abd 90a3 4fbd
00000190: 0c82 5abd 1bcb 953d 2692 e8ba 4f79 8e3c
000001a0: c7ed 1e3c ce64 a33c 7a2a c93d 8973 ac3c
000001b0: f68c 98bc 2a9c 4b3c 670d f1bc 815f 0ebd
000001c0: 8dee cabd afbe 033d a4cb 38bd a480 3cbd
000001d0: 7af1 33bc b794 e4bc d9e4 2ebd 76cc f43b
000001e0: e135 f9bc a8ac d939 57e1 81bd f09a 46bc
000001f0: 4bd3 30bd cdc3 3ebc 01a8 f93c 0347 17bd
00000200: 887d b53c ca61 053e 552d 8dbd 7df6 b3bc
00000210: 3043 fc3c 15fb ffbc d450 353c a44d d9bd
00000220: dc6b 2e3c bec8 3bbd c56a 4bbc 6d39 9a38
00000230: 39a1 85bd d753 8c3c f214 aebb 5a96 70bd
00000240: 01b8 003d 8a4f 38bc 106a 953b 460c 63bd
00000250: 0cf0 fd3c 8f6d f33c 7543 8c3b 7cbd 3dba
00000260: d04a e0bc 3f97 953d a08a 703d a070 a0bb
00000270: 36b7 66bd c6a3 df39 1d23 10bd 118f e8bb
00000280: 7614 8b3d a55a 0f3d b9ba 813c 60b5 abbb
00000290: c195 aa3d 6400 b33d ce64 ab3a 6cef 8ebc
000002a0: 2c9f 6dbd c6d5 34bc 4e3c abbc 2de0 1abd
000002b0: 9b47 5b3b e536 903d 1e90 ba3d d6e5 07bc
000002c0: 330c 33bc cd41 eb3c b9b8 b03c 9496 7ebd
000002d0: 0233 5fbd 5c90 4b3c cae9 0ebd 751a c5bc
000002e0: a633 62bc e1a5 b8bc ac92 bc3c 9184 43bd
000002f0: d8aa 94bd 4148 e43c bcb3 7ebb 8efa 543c
00000300: ffcc 4abd 844a ea3a 6eca 7b3b 0232 bfbc
00000310: add8 cdbc 1548 e43c ea2e a6bc 2bfc 35bc
00000320: b69c ad3d aa8b 72bd 20d6 2ebc f21c c33a
00000330: bb96 033d 3137 13bc d1b3 0b3c 2426 023e
00000340: d7ef 093c 6e83 8abc ea5d 9fb9 a1d4 95bd
00000350: ce06 fdbc 8542 91bc 6569 dfbc a329 1e3b
00000360: a124 dc3b b38e ccbc 45a9 2cbc e0e1 233d
00000370: c465 86bc 4133 48bd 6568 683d dd46 14bd
00000380: 07f4 52bb a524 573b 9fdc 9cbc 94c5 84bc
00000390: fe2f 633d 2034 2c3c 9337 5a3c 6225 3dbb
000003a0: 97e3 543c 9d2d 98bc b5b9 193e a818 29bd
000003b0: 952c 223c 4806 a1bb dd16 973d 734c 413d
000003c0: d8e7 a63c aebe abbc 9dd6 76bc 7b7a 2b3d
000003d0: 0080 ca3c bd89 94bc 649b 0dbb 0da6 ee3d
000003e0: 7d23 a5bb 64e9 20bc 2569 4fbc 7ca7 babc
000003f0: fe54 b03d 87ee db3c 1671 7dbd 3f17 683d
-0.056324348 -0.021933269 -0.0382437 0.044969127 0.055459213 0.011968916 0.012031668 0.030741286
0.031463366 -0.053036693 0.030966872 0.0054566725 0.02158115 -0.018000448 0.08555699 -0.0025930407
-0.006789729 0.075234905 -0.0008810701 0.000248879 -0.03639641 -0.021917334 -0.04829139 0.045994755
-0.00083043246 0.008844186 0.0074795326 -0.0203188 -0.024756683 -0.009744911 0.03421723 -0.023946116
0.090357766 -0.009325129 -0.011498298 -0.013622348 0.1150671 -0.006983435 -0.042399425 0.028287288
0.040142383 -0.0071717273 -0.0034425952 -0.0016525979 0.043549303 0.098192 0.101657964 -0.009180435
-0.011123665 -0.013015856 -0.022801045 -0.024902856 -0.0013854245 -0.017909035 -0.045638856 0.0095139695
0.05753145 0.06083707 0.007831848 -0.03582481 0.019943194 0.025458733 -0.034866095 0.040665857
0.028247172 0.06677488 0.011078748 -0.047775026 -0.06753512 -0.017474286 -0.020403875 0.022109983
-0.030340625 -0.04728685 -0.023230016 -0.0030701184 0.029183263 0.00055166683 -0.036100876 -0.029438976
0.0008408652 -0.022685137 -0.04123769 -0.048114557 0.07015573 -0.05161404 -0.03754183 -0.044282544
-0.01795922 0.06026598 -0.0100056175 -0.005112476 -0.057750154 0.042560473 -0.0030772043 -0.030462775
-0.0073192185 -0.0017211873 -0.045643907 -0.050693095 -0.05334668 0.0731413 -0.0017743751 0.017391829
0.009700245 0.019945528 0.09822555 0.021051185 -0.018621903 0.012427369 -0.029425336 -0.03475905
-0.09908781 0.032164272 -0.04511608 -0.04602112 -0.0109828655 -0.027902944 -0.042698715 0.0074706627
-0.0304212 0.00041518104 -0.06341808 -0.012121901 -0.043170255 -0.011643362 0.030475618 -0.036932956
0.022154585 0.13025585 -0.06893412 -0.02196812 0.030793756 -0.031247655 0.011066634 -0.10610512
0.010645833 -0.04584574 -0.012415593 7.3539886e-05 -0.065248914 0.017129822 -0.0053125555 -0.058737136
0.03142548 -0.011249432 0.004559763 -0.055431627 0.030998252 0.029715328 0.0042805024 -0.0007238013
-0.027379423 0.073042385 0.058725953 -0.0048962384 -0.056327067 0.00042655895 -0.035189737 -0.007097133
0.06791012 0.034998555 0.015836107 -0.0052401274 0.083293445 0.08740309 0.0013076307 -0.01744815
-0.058013126 -0.011037296 -0.020902779 -0.037811447 0.0033459428 0.0704172 0.091095194 -0.008294543
-0.0109282015 0.0287179 0.021572458 -0.06215532 -0.054492004 0.012424555 -0.034890927 -0.024060467
-0.013806259 -0.022540035 0.023019157 -0.047733847 -0.07259148 0.027866485 -0.0038864454 0.01299919
-0.049511906 0.0017874991 0.0038420218 -0.023339275 -0.025127733 0.027866403 -0.020286042 -0.011107485
0.08477156 -0.059215225 -0.010671169 0.0014885946 0.03212617 -0.008985327 0.008526758 0.12709862
0.008418999 -0.016908374 -0.00030396815 -0.07315946 -0.030887034 -0.017731914 -0.027271936 0.0024133704
0.0067182337 -0.024970388 -0.010538404 0.040010333 -0.016405948 -0.048877005 0.056740183 -0.036200393
-0.0032188909 0.0032828238 -0.01914817 -0.016207494 0.05546569 0.010510474 0.013318914 -0.0028861393
0.012993715 -0.018576438 0.15012248 -0.04128328 0.0098983245 -0.004914079 0.07377408 0.04719205
0.020374224 -0.020964947 -0.015065816 0.041864853 0.024719238 -0.018132085 -0.0021607513 0.116527654
-0.005039631 -0.00982127 -0.012659346 -0.02278494 0.08609961 0.026847137 -0.061875425 0.056662794

sequential/dense_1/MatMul f4 [31, 32]
00000000: 2773 9a3d 836a 7eba 9a74 20bd 8731 f9bb
00000010: 7b53 90bc 5948 e23d d489 963d e38a 9fbd
00000020: 88f4 c7bb a31c 9fbd 3ce0 bd3d 6067 0abd
00000030: 806c 0fbb b229 4fbd a528 4abd cc82 0dbd
00000040: 4629 d6bc 074d e3bb 8435 053e 6d0d 68bd
00000050: cf7b 9abb 9e35 c83d 56fb b53d 6ee7 b53d
00000060: fc79 cfbc 138f c03c 5b37 b63d a640 3bbd
00000070: d1f3 8abd a93a 80bd 0151 6e3d 6b7c d13d
00000080: 506f 56bc a154 56bd 72dc ceb9 6a17 5dbd
00000090: 280e 5dbd 3ffc b63d 0f9e aebc 629b 37bd
000000a0: fb39 6b3d 08bd 503d 7e0d 973d 7b0f f9bc
000000b0: 7097 a33d ba84 81bd 55d1 213d b2d8 d23d
000000c0: bf44 03bd 783c 00bd 41fe 113e d567 03bd
000000d0: 570c 09bd 8d9b ff3c fc28 04bd 39dd a73d
000000e0: 06db 7a3d 9582 02bd 3238 af3d 5d9c 3abd
000000f0: a9a9 50bd e8f4 0bbd 128f b13d ad95 dc3d
00000100: b0e6 76bd 1488 ba3d 2cef dc3d daeb 8ebd
00000110: f9a2 85bd 0c8c bfbc d795 83bd 5841 3fbd
00000120: 3130 7f3d 55b2 c8bd 91ac 92bd 8f03 db3d
00000130: bc11 7b3c 010f ad3d 9159 883c 9941 d83d
00000140: 295c 663d ed49 32bd 6d76 01bd 9f16 cabd
00000150: cf8e 7d3d 880d 67bd 9a51 8f3d a37f 39bd
00000160: 7034 8c3b 8d78 16bd e301 cd3d f56c 933d
00000170: aee4 22bd 3717 7ebd 0744 a83d d6ae f9bc
00000180: 0cd6 e9bc 97a7 61bb ff5f 58bd 129e 6dbd
00000190: b49c a0bc 86c3 03bc 3bdf af3d d022 8bbc
000001a0: 234d e2bb 8da1 ad3d e4ba d0bc 12fc f6bc
000001b0: 8d9a c13b 3f91 953d bd2f dd3d e731 f7bc
000001c0: 900d ef3d b23e 14bb 13f8 b7bc f266 bd3d
000001d0: c29f 25bd c7aa 66bd ca22 d8bc f619 14bd
000001e0: c2f5 01bd dab3 00bd b31d 403c 3d66 f23d
000001f0: 6d06 1c3d 8be6 f8bc 9ce2 be3d 924b 52bd
00000200: b8de 803d 2c3c d53d 2511 003e a405 95bd
00000210: e781 b13d 8420 83bc da8d adbd 6fac 613c
00000220: 7ac0 b3bc 781d a03d 8395 74bd b399 cc3d
00000230: ea99 fc3c 199a 59bd d953 073b fdf7 c43d
00000240: 09e7 76bd c6f6 d63d e333 0abd f9fe 963d
00000250: 9fb4 bb3d 32fe 00bd 7488 11bc a544 683d
00000260: ae8a c33d 1c2e 30bc 9b58 49bd 5322 07bb
00000270: 2a9c 93bd 1fc7 533d 5f89 79bd 5060 97bd
00000280: 8be1 3dbc 280f 86bc 5d69 14bd 92e3 b43c
00000290: b513 c03d 7a57 0cbb 2929 35bd bd98 39bd
000002a0: 1a6d dd3d f3aa c03d 6527 2abc 670f 57bd
000002b0: e466 27bd f2ba 94bd 0b54 7cbc 12ca 69bc
000002c0: f51f 0cbd 8039 c1bc 7cf9 7dbc ea79 9b3d
000002d0: cb38 cebc 9bc1 1dbd 4a1d e8bc 5619 b73b
000002e0: 3877 973d 3382 dd3d 7063 1cbd 7eb1 0ebd
000002f0: 8fa7 da3d 408c 45bd a3be f13d e5a7 dbbb
00000300: beb6 7e3c 002f dc3d fd83 a3bd c239 b5bc
00000310: 7be0 bdbc 85b5 bebc fddf 55bd 543a cebc
00000320: 4e91 8bbd 25d5 03bd 81d9 903c 8f79 48bd
00000330: d4d1 e6bc c817 02bd 420e debc 18f5 85bd
00000340: 9fb0 92bc eab0 ffbc 7128 29bd dce2 76bd
00000350: a578 c93d 7791 c23d a202 e13d 6d20 21bd
00000360: 25d7 3bbd b13b bf3d caa8 f43d 957a 70bd
00000370: 7dc2 03bd 9046 0dbd 4921 c73d 88c1 c7bc
00000380: 1de9 01bd 87c8 cebc 402d 02bd 1743 46bd
00000390: a1e6 893d aa77 b4bc e813 54bb 34fc 36bd
000003a0: 98d6 953d 0e59 863d 6242 9e3d cacf 65bd
000003b0: 218b 61bd 86ba d63d bcff 01bd 7451 b73d
000003c0: 93aa ad3d 1b13 ea3d 53ad d4bc 2d05 a33d
000003d0: 4b2a dbbc 5552 893d 9aaa 37bd 2536 06bd
000003e0: b0b6 8a3d 3510 12bd c611 243d 7bf4 203d
000003f0: dde0 33bc 960b 8f3d fd8a 9d3d 3aef 51bd
0.07541495 -0.00097052025 -0.0391737 -0.007604781 -0.017617932 0.110489555 0.073505074 -0.077901624
-0.0061021484 -0.07769134 0.09271285 -0.033789992 -0.002188474 -0.050576873 -0.049355168 -0.034548566
-0.026142728 -0.0069366726 0.13008696 -0.05665343 -0.004714466 0.09775852 0.08885829 0.08882032
-0.025326721 0.023505723 0.08897277 -0.04571595 -0.067847855 -0.062611885 0.05818272 0.10228809
-0.013088062 -0.052326802 -0.00039455626 -0.053977408 -0.05396858 0.08934831 -0.021315603 -0.04482592
0.05742834 0.050961524 0.0737562 -0.03040289 0.07987869 -0.06324144 0.039506275 0.102952376
-0.032047983 -0.031307667 0.14257146 -0.032081444 -0.033459034 0.031202102 -0.03226565 0.08196492
0.061244033 -0.031862814 0.0855564 -0.045559276 -0.05094305 -0.034169108 0.086698666 0.10770736
-0.060278594 0.09107986 0.10787806 -0.06978579 -0.06525225 -0.02338221 -0.06425064 -0.046693176
0.06230182 -0.09799639 -0.07161821 0.10694038 0.015324052 0.084501274 0.016644271 0.10559387
0.056240235 -0.043527532 -0.03160708 -0.09867596 0.06190377 -0.05640939 0.06997986 -0.04528774
0.004278712 -0.03673606 0.100101255 0.07198516 -0.039768867 -0.06203386 0.082161 -0.030478876
-0.028544448 -0.0034432167 -0.052825924 -0.058012076 -0.019605972 -0.008042222 0.085875 -0.016984373
-0.006906168 0.08478079 -0.025479741 -0.030149493 0.0059083165 0.07303094 0.10800121 -0.030175162
0.11672509 -0.0022620377 -0.022457158 0.09248151 -0.04043556 -0.05631521 -0.026383776 -0.03615757
-0.031728514 -0.03142152 0.011725831 0.11835907 0.038092066 -0.030383369 0.09320566 -0.0513416
0.0629248 0.104118675 0.1250654 -0.072764665 0.08667355 -0.016006716 -0.08474322 0.0137740215
-0.021942366 0.07818121 -0.059712898 0.09990253 0.03083511 -0.053125475 0.0020649342 0.096176125
-0.060278926 0.10496287 -0.03374089 0.07372851 0.0916531 -0.03149242 -0.008882631 0.05670609
0.095479354 -0.010753181 -0.049156766 -0.0020619824 -0.0720752 0.05170357 -0.060922023 -0.07391417
-0.011589418 -0.016364649 -0.036233295 0.02208117 0.09378759 -0.0021414445 -0.044228707 -0.04531168
0.10811825 0.09407606 -0.010385369 -0.052504923 -0.04086961 -0.072622195 -0.015400897 -0.014269369
-0.034210164 -0.023586988 -0.015501376 0.07591613 -0.025173565 -0.038514715 -0.028334279 0.005587737
0.07395786 0.10815849 -0.03818077 -0.03483724 0.106764905 -0.048229456 0.11803939 -0.006703364
0.015546499 0.10751152 -0.07984159 -0.022122268 -0.02317833 -0.023279915 -0.052215565 -0.025174297
-0.06814824 -0.032185692 0.017681839 -0.048944052 -0.028176226 -0.03176096 -0.027106408 -0.065408885
-0.017906485 -0.031212289 -0.041298334 -0.060274944 0.09837464 0.095004015 0.1098683 -0.039337564
-0.045859475 0.09337557 0.119462565 -0.058710653 -0.0321679 -0.03449112 0.097231455 -0.024384275
-0.031716455 -0.025242103 -0.031781435 -0.048403826 0.06733442 -0.022029717 -0.0032360498 -0.044674113
0.07316321 0.065599546 0.07727505 -0.056106366 -0.055064324 0.10484795 -0.031738028 0.08951083
0.084798 0.11429425 -0.025961554 0.079599716 -0.026753565 0.06705157 -0.044840433 -0.03276648
0.06773126 -0.035659987 0.040056013 0.039295655 -0.010978905 0.06984632 0.076925255 -0.051253535

sequential/lstm/lstm_cell_2/BiasAdd/ReadVariableOp/resource1 f4 [256]
00000000: 6afa 963c 6b20 17be 3f10 9b3d 5769 3f3e
00000010: 8236 db3d 8157 1abd a606 bd37 bf96 ec3d
00000020: c024 073e 5cbb 943d cbc9 94bd 5220 68bd
00000030: 3b65 733c f992 e73d 90fa 50bc e19f 72bc
00000040: da77 da3b 3b08 17be 12c3 11bc 03ee 94bd
00000050: be95 633d a88e b03d 0317 16bd db41 a5bd
00000060: af2d 07bd 8ea7 b53b bf2a f93b 789d 53bd
00000070: fa03 793d 944c dbbd d093 cb3b a6b0 1abc
00000080: 7e25 aa3d b4dd 463e 6880 03bd 42bb 773d
00000090: 776a b33d 93ab 363d 1add 023e 8771 59bd
000000a0: fb6e cb3e 9db0 043e c8d9 973c 7f2b 4e3d
000000b0: 5481 d13d 7baa e23d 78df bc3c 44d7 553e
000000c0: 1652 a5bd 424f 5eba 239a 833d 7f3b 39bc
000000d0: a56f c23c 6a96 903d 90a1 99bc d8e3 5d3e
000000e0: 5d48 16bd ca6e 1abd 4ae7 bf3e f460 353e
000000f0: 6f10 0c3c 5617 9cbd c1fb b93d fd4e d2bc
00000100: f379 803f c850 683f e724 593f a2ca 973f
00000110: 513f 823f 017d 733f 1693 583f 337d 853f
00000120: 052c 7d3f af8a 7b3f f839 783f 77ab 923f
00000130: 97d7 8c3f f89e 703f 5587 733f 6338 6f3f
00000140: 2635 553f 06cc 613f 26e3 573f daff 813f
00000150: a13c 893f b737 813f d51a 6e3f 8613 713f
00000160: c0f0 7e3f be01 693f 937a 8c3f fac2 673f
00000170: fbd0 593f 8695 623f 2351 7f3f 6de2 6e3f
00000180: 2c0f 8d3f 0e8a 9a3f 921e 853f 7ae6 843f
00000190: b031 863f 2e55 5c3f 3053 463f af63 743f
000001a0: 9758 8d3f 7ec9 943f 1b47 4a3f 76a9 8f3f
000001b0: 2951 763f c106 933f eb1f 823f 17e8 933f
000001c0: 67b5 713f 5b2c 553f 82ff 933f f6bf 633f
000001d0: 2fce 673f 8035 813f 5cdd 873f cd57 843f
000001e0: 100d 9d3f ad37 733f e113 8c3f f18a 913f
000001f0: 78b6 803f f35c 7c3f 03ae 653f fc09 5f3f
00000200: f2e3 1bba bec8 c3bd ddeb d63b 398e 783e
00000210: fdb5 2d3e 107f c33b af26 813c 2a41 1fbd
00000220: 0ef2 5a3e f6f0 473c a76b 9abd 12a0 b8bb
00000230: e820 003e 84f3 663d c00d babd 36b0 173c
00000240: eda5 02bd fdc4 4bbc 0179 debc f2dc e8bd
00000250: 61bb bc3b 966e 533d a60a babd 2acb 20bd
00000260: 4deb 043d 0959 353c c6e1 083d 81ba 393b
00000270: b6c1 5c3d 075c 65bc 2d00 92bd 7806 b23d
00000280: 856d 763b 04b6 393e 0808 073d 1c23 003e
00000290: 0682 c43d b117 88bd ca27 443d 4457 0d3d
000002a0: 7085 a73e b15d 633e 8bea e6bd 9634 6abc
000002b0: 6f60 4c3e 18c2 853e cd99 f83e e342 553e
000002c0: bed0 eebc 93a3 d03c 9afa 523e 6ddf c73c
000002d0: 5472 193d 38f4 0e3e 4bc6 d73d 2660 933e
000002e0: 39de ab3c 95e2 18bd 0a1b 833e 3e5a ad3d
000002f0: 4734 ae3d a5ff f1bd e64c 803d e775 85bd
00000300: 0cf6 163d ec21 7d3d 9f42 96bd a38e 1d3e
00000310: 73dd 273d 0a47 27bd fb2d bb3b ae68 f73b
00000320: bdb2 aa3d 7498 06bd 08ab 5bbc b912 fe3c
00000330: 4e75 c93d 2bfe 833c 28e4 753d 8648 b43c
00000340: 7d27 c3bd 4d8e 623d 5a60 49bd ae9e 59bc
00000350: a0e8 d3bd f1c8 403e cd6f b7bd efe9 10bd
00000360: 4344 86bd 1e83 8abc af4c c83d 62e3 253d
00000370: 90f7 243d 4ace 03be 2266 f9bc 97dc 13bc
00000380: 1272 363e f3a8 6f3d dde4 59bc 9e67 1e3e
00000390: 1fbe 21be b54d 5f3d 799d 46bd 06ff 1f3e
000003a0: 3c7a 373e c5a9 663e 97e0 90bb 90fb e93d
000003b0: eb6c abbc 0a8a 3d3c 6635 643c 43de 733e
000003c0: ac48 023c 1ab9 363d db73 6c3e ab78 d33d
000003d0: 910e 88bd 66ca 293e 3a5b 9c3d 9fb4 c63d
000003e0: 6e3a 0fbe d7c3 0c3e 1aa4 f03d 561a 393d
000003f0: fe55 b6bc 446a 513d 7870 e23d 3846 963d
0.018429954 -0.1475846 0.07571458 0.18692528 0.10703756 -0.037681106 2.2533652e-05 0.1155219
0.13197613 0.072622985 -0.072650515 -0.056671448 0.014855678 0.1130733 -0.012755051 -0.014808626
0.0066671195 -0.14749233 -0.008896606 -0.0727196 0.055562727 0.086209595 -0.03664304 -0.080692016
-0.03300255 0.0055436557 0.0076039727 -0.051663846 0.060794808 -0.107079655 0.006212689 -0.00944153
0.08307932 0.1942051 -0.03210488 0.060481317 0.08760541 0.04459722 0.12779656 -0.053086784
0.3973311 0.12957998 0.018536463 0.05033445 0.102297455 0.11067673 0.023055777 0.20882899
-0.08072297 -0.0008480438 0.064258836 -0.011305689 0.023734877 0.07059939 -0.018753797 0.21668947
-0.036690105 -0.037703313 0.37481147 0.17712766 0.00854884 -0.076216385 0.09081221 -0.02567243
1.0037216 0.9074826 0.84821934 1.1858714 1.0175573 0.95112616 0.84599435 1.0428833
0.98895293 0.9825849 0.96963453 1.1458577 1.1003293 0.9399257 0.95128375 0.93445414
0.83284223 0.8820194 0.84330976 1.0156205 1.0721627 1.0095128 0.9300969 0.94170415
0.99586105 0.91018283 1.0974907 0.90531886 0.85084504 0.88509405 0.9973318 0.9331425
1.1020255 1.2073381 1.0399954 1.0382836 1.0483913 0.86067474 0.77470684 0.95464605
1.104266 1.162399 0.7901475 1.122359 0.9621759 1.1486436 1.016599 1.1555203
0.94417423 0.83270806 1.156235 0.88964784 0.90548986 1.0094452 1.0614429 1.0339295
1.2269611 0.9500683 1.0943567 1.1370527 1.0055685 0.9857933 0.89718646 0.8712461
-0.0005946747 -0.09559773 0.006558879 0.24273004 0.16963954 0.0059660748 0.015765516 -0.038880505
0.21381399 0.012203446 -0.07540064 -0.0056343162 0.12512553 0.05638458 -0.09084654 0.009258321
-0.03189652 -0.012437102 -0.027157309 -0.11370267 0.005759642 0.051619135 -0.09084062 -0.039256252
0.032450963 0.011068591 0.03341844 0.0028339925 0.053895675 -0.013998992 -0.0712894 0.0869264
0.00376019 0.1813584 0.032966644 0.12513393 0.095951125 -0.06645144 0.04788951 0.03450705
0.32718992 0.22203709 -0.11275204 -0.014294764 0.19958661 0.26124644 0.4855484 0.20826297
-0.02915227 0.025468623 0.2060341 0.02439853 0.037462547 0.1396035 0.10535868 0.28784293
0.020979987 -0.03732546 0.25606567 0.08464478 0.08506065 -0.118163384 0.06264667 -0.06516629
0.036855742 0.06179993 -0.07336926 0.15386443 0.040982675 -0.040839233 0.0057122684 0.0075503206
0.08334873 -0.032860234 -0.013407476 0.031014787 0.09836827 0.016112408 0.06003204 0.022007238
-0.09529016 0.05531149 -0.049164154 -0.013282461 -0.10347104 0.18826653 -0.08956871 -0.035379346
-0.06555989 -0.016908225 0.09780251 0.040500052 0.040275156 -0.12871662 -0.030444209 -0.009024761
0.17816952 0.058510732 -0.013299194 0.15469214 -0.15795182 0.054517467 -0.04849002 0.15624627
0.17917722 0.225257 -0.0044213044 0.11424935 -0.02092596 0.011568556 0.013928747 0.23815255
0.007951897 0.04461012 0.2309107 0.1032575 -0.06643403 0.16581115 0.076345876 0.097024195
-0.13987133 0.13746582 0.1175005 0.04519113 -0.022257801 0.051126733 0.11056608 0.07337612

std.constant5 f4 [256, 64]
00000000: 7910 17be 5f8d ffbd 3042 5ebb c445 76bd
00000010: e38f 5fbe 3ea6 c13c 686b eebd a303 323d
00000020: 07f8 8b3d 2523 0bbe 6253 22be c703 5cbd
00000030: a106 9f3c 59a7 9bbe d144 40be c5bf 14be
00000040: 8582 3a3c a3f9 0a3d 9055 55bd 9536 3e3d
00000050: e330 90bd 79d3 d63d 23dd b8bd 0e69 5cbe
00000060: f13d 36bd 1a1e ec3d 2564 84bd a0ae fb3a
00000070: da42 07be 65b1 09bd 980b 89bd acb7 25be
00000080: 37cf c2bc f493 a1bc 87ed d1bc 5805 64bd
00000090: 82e8 f5bd 34c1 de3d 5486 59be 79d8 6e3d
000000a0: 3057 8c3d 96b9 08bf 29cf 50be 567b acbb
000000b0: eb5c acbd 7fa3 29be 8559 943d e0c3 eb3d
000000c0: 2004 24be 63b5 303d a2d7 9f3e 44b3 e43d
000000d0: 9144 14be 9db7 c73d 0463 cabd de10 d6bd
000000e0: 72e7 8dbb 2dce 9cbd 0c8b 8c3b f64a c33d
000000f0: ea97 79be 764d 1a3c 01a2 033d 4b47 d0bc
00000100: c84a 253e 1f9c c7bd 7188 843b 5172 71be
00000110: d411 47bd cdef 0bbe a5ac 893d dc85 833d
00000120: 028a 36be 0409 ccbd a741 2abd 9304 09bd
00000130: 1916 b23d 3903 403e 6142 263d 7259 88bc
00000140: 040a 06be 2341 293d caa0 893e ed7b ddbd
00000150: a97e 71bc 63e0 16be a4d8 08bd bf7a 8bbe
00000160: 5bbf 90be 7ec6 473d 53c4 1abe f543 843e
00000170: c51a debd 5517 543d 7914 edbc 2ffa ccbd
00000180: ee7a aa3d 1229 823d 5337 3a3d 4d7c 753e
00000190: d800 133e 1a60 233c 9e64 f5bd 9c6c 403e
000001a0: 60c4 bf3c ed68 ee3c 3d5d 493e 4e3e 81bd
000001b0: 1c4b d4bd 4808 b2bd b0e3 94be c2f1 96be
000001c0: 56e0 6cbd ad76 823d 3c92 ccbd 1f46 85bd
000001d0: 1956 9dbd 44ed 8abe 58e6 ad3c e11a 4bbe
000001e0: 35bc 62bd dedb 76ba 2612 70be 9ed7 3f3e
000001f0: 84e8 d2bc b093 b23d 6871 983c 371f b9bd
00000200: 13e1 203e b807 8a3d f488 2cbd 8df7 9d3d
00000210: dd9a f535 2971 4c3e a67c 05bd 520a 343c
00000220: 9889 313c 0c9a b83d ca2f 213d 818e 7fbc
00000230: 7e78 463e 2442 89bd 88b2 363d 3179 033e
00000240: f9c4 403d ad1f 133d 912c a4bd 8287 e43c
00000250: e455 edbc 1f19 153e 2bdb 8b3e 6483 003d
00000260: 6bfb 23bd bed8 ae3d cecc 513d d389 ce39
00000270: ee42 8d3a b677 90bd 0b8f fabd f238 c33d
00000280: 8a9a 033e 9a03 793d da39 7b3d 9782 c53d
00000290: e679 1abe b0ae 88bd ae39 c63c c208 a63c
000002a0: 2cfe 333d ccbf 533d 6b39 21be 70e0 a3bc
000002b0: 5ea7 a03d 1213 d13c 1106 b63c 36ad 8f3c
000002c0: 4038 ccbc 7121 f23d 9cc3 2c3d 51ef 253e
000002d0: 6e18 2bbd d675 a83d 5b01 7dbc bc48 8c3d
000002e0: 9df0 1b3d 339c 82be 6982 8b3e ba62 8a3e
000002f0: 981c b1bc 2d82 bb3d 8d3c 893e 2dba 06bd
00000300: cd0d 39be 47f9 203d 6e24 b6bd 4782 2abe
00000310: 5d81 94bd 80a1 8e3c 6fbd 8c3d 1200 6e3e
00000320: a99a 91bd fdae dc3d ed3a 883d 5144 b93d
00000330: 501f d43d 108b a2be 2f5d a73d 24aa 6b3b
00000340: 6195 51ba 864f d33c cc3f 9cbd d260 0f3d
00000350: 8e37 0fbe ff78 3c3e 7198 adbc 9587 6abd
00000360: 197b db3c 46c9 2e3d c209 09bd 1a60 dcbd
00000370: d98e f1bd 78f3 a03d 87c2 e9bd 029b ad3d
00000380: 661b 40bb 2886 18be 556e 71be de43 6a3c
00000390: 4ada 8dbd 0ec1 e0bd c3f1 96bd 569b 36be
000003a0: e6f1 dc3c b696 18bd 9606 30be f7d7 253b
000003b0: cec5 44bd 7395 2dbe 169e 98bd 65b5 5abc
000003c0: 0cbc 173e b5a0 02bd f6e8 943c 5685 fcbd
000003d0: 27d5 9fbc b6a5 133d b7a9 c9bd 3fc8 1dbd
000003e0: 80d3 95bd ee51 163c 0aac 7bbd 3dd4 1abe
000003f0: 3a5a 51bd 42cd 1a3e f3de 243e c331 983c
-0.14752378 -0.12478136 -0.0033913963 -0.060125127 -0.21832232 0.02363884 -0.1164158 0.0434605
0.06834417 -0.13587625 -0.1585212 -0.05371454 0.01941234 -0.30401114 -0.18776251 -0.1452628
0.011383657 0.03392948 -0.052083552 0.046438772 -0.070405744 0.10489554 -0.090265535 -0.2152445
-0.044492666 0.11529179 -0.064644136 0.0019201823 -0.13209096 -0.033616442 -0.066916645 -0.16183347
-0.023780448 -0.01972387 -0.025625957 -0.05566916 -0.12007238 0.10876694 -0.21242648 0.058311913
0.06852567 -0.5340818 -0.20391525 -0.005263726 -0.0841616 -0.16566275 0.07243637 0.115119696
-0.16017199 0.043141734 0.31219202 0.11167005 -0.14479281 0.09751818 -0.09882167 -0.10452436
-0.004330569 -0.076565124 0.0042890366 0.09535782 -0.24374357 0.009417882 0.03213692 -0.02542462
0.16141808 -0.097465746 0.0040445854 -0.23578764 -0.048600987 -0.13665695 0.067223825 0.06422016
-0.17826083 -0.09962657 -0.041566517 -0.033451628 0.08695621 0.1875123 0.040590648 -0.016644213
-0.13089758 0.041321885 0.26880485 -0.108146526 -0.014739671 -0.14734034 -0.03340973 -0.27242085
-0.28270993 0.04877328 -0.15113954 0.25833097 -0.1084495 0.051780064 -0.028940426 -0.10008656
0.08324228 0.0635549 0.045462918 0.23973198 0.1435579 0.009971643 -0.11982082 0.18791431
0.023409069 0.029102767 0.19664474 -0.06310712 -0.103658885 -0.08692986 -0.29079962 -0.29481322
-0.05783113 0.06370292 -0.099888295 -0.06507515 -0.076824374 -0.27134144 0.021228 -0.19834472
-0.05535527 -0.0009416918 -0.23444423 0.18734595 -0.025745638 0.087195754 0.018608764 -0.09039157
0.15710859 0.067397535 -0.042122796 0.07713232 1.8298994e-06 0.19965042 -0.032589577 0.010988789
0.010836028 0.09013757 0.039352216 -0.01559794 0.19381902 -0.067020684 0.044603854 0.128392
0.047062848 0.03591888 -0.08016313 0.027896646 -0.02897162 0.14560364 0.2731565 0.031375304
-0.040034693 0.08537434 0.051220708 0.0003939407 0.0010777393 -0.07054083 -0.122343145 0.09532346
0.1285192 0.06079445 0.06133447 0.09644049 -0.15085563 -0.06673944 0.024197426 0.020267848
0.04394357 0.051696584 -0.1574456 -0.020004481 0.07844423 0.025521789 0.02221969 0.017538648
-0.024929166 0.11822785 0.042178735 0.16204573 -0.041771345 0.082256004 -0.015442218 0.068498105
0.038071264 -0.25509796 0.27247933 0.27028447 -0.02162008 0.091556884 0.2680401 -0.032892395
-0.18071671 0.03930023 -0.08893667 -0.1665126 -0.072512366 0.017410994 0.06872069 0.23242214
-0.07109577 0.10775564 0.06651864 0.090462334 0.10357535 -0.3174672 0.0817207 0.0035959566
-0.00079949765 0.025794756 -0.07629356 0.035004444 -0.13986036 0.18405531 -0.021190854 -0.057258207
0.026792096 0.042672418 -0.03345657 -0.107605174 -0.11794824 0.07858938 -0.11414056 0.08476831
-0.0029313206 -0.14894927 -0.23577245 0.014298407 -0.06926401 -0.10974322 -0.07370331 -0.17832693
0.026970815 -0.037253104 -0.17190012 0.0025305727 -0.048040204 -0.16951542 -0.074520275 -0.013348912
0.14817828 -0.031891543 0.01817749 -0.12330119 -0.019510819 0.036046706 -0.09846824 -0.038521048
-0.07315731 0.009174807 -0.061443366 -0.15120025 -0.051111437 0.15117362 0.16100673 0.018578416

std.constant6 f4 [256, 55]
00000000: 4c6e 6dbb 7b6c 20bc 012a b53c bfdb 9a3c
00000010: 0196 053d fb43 483d a996 0c3d 4ca8 573d
00000020: 9c0b c13c e8da 3f3c 07db 003d bf39 ca3c
00000030: 4887 1a3d 46d0 da3c f870 233d 3957 da3c
00000040: ab63 143d 8f5e 903c aa9c e73c 6b5b 2b3d
00000050: 845b d93c 82d9 313d ee7c d03c 661e 303d
00000060: 460c 153d 600e fa3c 90c7 c33c 5ba9 0d3d
00000070: 3416 f0bc fc54 d7bc fda6 f1bc 48c7 d2bc
00000080: c9ff 1a3d 8bbd 203d 0122 2dbc bbbf 9a3c
00000090: 6398 e9bc 81a6 f3bc d14c e9bc 2d47 01bd
000000a0: b5f9 ac3d a961 04bd b725 20bd 9ccb 05be
000000b0: 48ae c9bd 3047 a9bd c5c6 de3d cbd5 fbbd
000000c0: 6abd b4bd d588 2cbc ac38 d63b 5a1f cdbc
000000d0: 3764 d23c 7e14 f73a 3f28 bb3d c369 173c
000000e0: 509f 1e3c 88c6 aeba 2ec1 fdba fe8f 96bc
000000f0: 8af5 86bb 50c2 d4bc c6ac 27bb 85eb 08bb
00000100: 578d 87bb b4ed b7bb 87a8 02bc 3386 b9bb
00000110: 6e64 96bb 1715 02bc d18a 233b b9cd a2bb
00000120: 4332 cdbb b674 febb b62a 1bbc efb9 d7bb
00000130: 8fc9 f1bb e780 c6bb e0d8 03bb 86e2 04bc
00000140: 0858 e1bb a2cc 67bb 73b7 43bb 1ce5 2eb9
00000150: 55c1 f2b9 91b0 c9ba 235a 3cbb 623f 1ebc
00000160: cc7c 05bc a9d0 203a fec3 d73b a82b 803b
00000170: 3619 1d3c 8ad2 1e3b 6f9e c03b 7531 3c3d
00000180: b9f6 edbd b60c afbb bdc8 093d 2c8a bd3b
00000190: c857 8d3c f0ae a93d f41f 013e 8e18 663c
000001a0: 7b2f 74bc dcb7 133e 267c 973c 0c31 edbc
000001b0: b4e9 8cbd 8585 3f3c fb18 95ba 92ee 67ba
000001c0: c90d 6eba e2d5 8dba a0b3 0cba 84b9 87ba
000001d0: 0916 e7b9 9ab3 5bba 6b8b 81ba e50c 99ba
000001e0: bc2c e6b9 abce 99ba f656 e8b9 8c89 98ba
000001f0: 3890 d9b9 8d64 98ba 186e 50ba a7f7 96ba
00000200: 3c4c 18b9 600a 9bba 0b76 f437 fe96 9cba
00000210: 3112 55b8 fbd6 99ba e4c8 8bb7 89cd 9dba
00000220: 57c8 09b9 864d 9bba d682 20ba 6182 0ab9
00000230: 7f69 84ba 955b e039 625f 0f3a ae17 a4ba
00000240: d344 adb9 f147 9cba 72ce 09ba 188f 2db9
00000250: 568e b4b9 3152 5939 7897 6a38 50d5 3038
00000260: bc56 19ba e17d 7eb9 84fa 92ba 20a1 3db9
00000270: dce9 10bb 1ade 40bc dc16 b0ba bebf df3a
00000280: d6e6 29bc db28 b43b a654 803b 810c 693a
00000290: 17d5 f83b cf23 43ba 8bc1 c23b 251b 9eba
000002a0: bac5 763b 7ad0 9a3b 3ec8 7dbb 7f4a 2b3c
000002b0: 27d0 ffbb e340 5d3b 89ff 023c 44a3 8d3b
000002c0: ad1f db3b 830a 99bb f116 703b 9ccb b73b
000002d0: e023 ca3b ad84 683b b72b f03b 9fba cd3a
000002e0: 076a a63b e274 aabb ef39 033c 27fa 9b3a
000002f0: 829d 0e3c f340 0939 07e4 013c 178d 22bb
00000300: 7621 f43b f7bf 79bb a5f3 623b 4d2b a8ba
00000310: 30bc 1f3b 3cfc 8439 7abb 3b3b a0f8 18bb
00000320: cb8f ee3b 4e24 22bb 5748 533a 02f9 e638
00000330: 11a1 133a 3913 bebc 9acd 353d 8f4e d53c
00000340: d46b 9f3b a729 1c3e 784b 3d3d 4e28 15be
00000350: fe2a 87bd 3704 be3c 6f49 96bd c0e4 46bd
00000360: 1174 cfbb 0365 83bd 07a4 89bc 1139 83bc
00000370: 1748 0d3b aea4 88bb cb26 313b ff05 76bb
00000380: 49e7 b73b 4c51 42bb f74b 753b 70c1 1abb
00000390: 4e1b 18ba 8424 bbbb 73e1 16ba a6bd e7bb
000003a0: 68db fbb8 ad97 03bc e20b 9139 6007 0ebc
000003b0: e125 41b9 08fa bdbb 43c5 1f3b 1935 d1bb
000003c0: b0b8 4a3b 9d00 d9bb a7f9 313b 55df f4bb
000003d0: 30de 3a3a e87e aabb 8621 e53b b708 0fba
000003e0: 9cc7 a43b c7ca 03ba b40a 8c3b ec7e 62bb
000003f0: 5a80 1b3a 0223 9539 fd18 ba3b ec96 203a
-0.0036229072 -0.009791489 0.022114756 0.018903611 0.032613758 0.048892956 0.03432337 0.052650735
0.023565106 0.011709906 0.03145888 0.024685739 0.03772667 0.02671064 0.039902657 0.02665292
0.036227863 0.017623214 0.028272945 0.04183523 0.026532896 0.043420322 0.025450196 0.04299774
0.036388658 0.030524433 0.02389887 0.034585338 -0.029307462 -0.02628564 -0.029498572 -0.02572979
0.037841592 0.039243262 -0.010567189 0.018890252 -0.028515046 -0.029742481 -0.028479012 -0.03156202
0.08446065 -0.0323197 -0.039098468 -0.13065952 -0.09847695 -0.08265531 0.10877756 -0.12296637
-0.0882519 -0.01053067 0.0065375175 -0.025039364 0.025682552 0.0018850712 0.09138536 0.009241524
0.009681538 -0.0013334313 -0.001935994 -0.018379208 -0.004118626 -0.025971562 -0.0025585159 -0.0020892334
-0.004136722 -0.005613053 -0.00797475 -0.0056617497 -0.004589609 -0.0079395985 0.0024954567 -0.0049683717
-0.006262095 -0.007765378 -0.009470632 -0.0065834443 -0.007378764 -0.006057847 -0.0020118281 -0.008110648
-0.006876949 -0.0035369773 -0.0029863983 -0.00016679283 -0.0004630188 -0.0015387704 -0.002874025 -0.009658666
-0.00814743 0.00061346084 0.0065846434 0.003911454 0.00958853 0.0024234378 0.0058782618 0.045945603
-0.11619324 -0.0053420914 0.033638705 0.0057842936 0.017253771 0.0828532 0.12609845 0.01404394
-0.014903898 0.14425606 0.018491816 -0.028954051 -0.06880513 0.011689548 -0.0011375243 -0.00088475004
-0.00090810336 -0.0010821188 -0.00053673424 -0.001035497 -0.0004407617 -0.000838095 -0.0009883469 -0.0011676817
-0.00043902348 -0.0011734565 -0.0004431528 -0.0011637672 -0.00041496917 -0.0011626646 -0.00079509756 -0.0011517898
-0.00014524249 -0.0011828654 2.9142035e-05 -0.0011946855 -5.08001e-05 -0.0011737043 -1.6663638e-05 -0.0012039404
-0.0001313997 -0.0011848665 -0.00061230117 -0.00013209275 -0.0010102241 0.00042792843 0.000546923 -0.0012519264
-0.0003304841 -0.0011923296 -0.0005256898 -0.00016551872 -0.00034438324 0.00020725351 5.5931014e-05 4.2160333e-05
-0.0005849411 -0.00024270221 -0.0011213575 -0.00018084468 -0.0022112047 -0.011771703 -0.0013434547 0.0017070693
-0.010369977 0.0054980344 0.003916341 0.0008890108 0.0075937617 -0.00074439956 0.0059434823 -0.0012062533
0.0037654475 0.0047245594 -0.003872409 0.010454773 -0.007806796 0.00337606 0.007995495 0.0043224413
0.0066871257 -0.0046704425 0.0036634768 0.005608989 0.0061688274 0.0035479472 0.00732943 0.0015695876
0.0050785574 -0.005201922 0.008009418 0.0011900113 0.008704545 0.00013089534 0.007927901 -0.0024803334
0.007450278 -0.0038108805 0.0034630087 -0.0012830287 0.0024373643 0.0002536493 0.002864568 -0.0023341551
0.007280325 -0.0024740878 0.00080597907 0.00011013636 0.0005631606 -0.023202525 0.04438553 0.026038436
0.004865149 0.15250264 0.04621455 -0.14566156 -0.06599997 0.02319537 -0.07338225 -0.048557997
-0.006330975 -0.06415751 -0.016801847 -0.016018422 0.0021557861 -0.004170022 0.002703118 -0.0037540195
0.005612288 -0.0029650507 0.0037429312 -0.0023613833 -0.00058024086 -0.00571114 -0.00057556404 -0.0070721684
-0.0001200948 -0.008031768 0.0002766541 -0.0086687505 -0.00018420025 -0.0057976283 0.0024379052 -0.0063845036
0.0030932836 -0.0066223876 0.002715686 -0.0074729123 0.00071284454 -0.0052031167 0.0069925217 -0.00054563157
0.005028678 -0.00050274696 0.004273737 -0.0034560515 0.00059319066 0.00028445577 0.0056792484 0.0006126005
